…
rom_pretrained(pretrained_model, config = config) decoder_layer = nn.TransformerDecoderLayer(d_model=config.hidden_size, nhead=config.num_attention_heads) decoder = nn.TransformerDecoder(decoder_layer, num_layers=6) model = Seq2Seq(encoder = encoder,decoder = decoder,config=config, beam_size=beam_size,max_length=target_length, sos_id=tokenizer.cls_token_id,eos_id=tokenizer.sep_token_id) model.load_state_dict(torch.load(Path(output_dir)/&quot;checkpoint-last/pytorch_model.bin&quot;)) model.to(&#39;cuda&#39;) . . Seq2Seq( (encoder): RobertaModel( (embeddings): RobertaEmbeddings( (word_embeddings): Embedding(50265, 768, padding_idx=1) (position_embeddings): Embedding(514, 768, padding_idx=1) (token_type_embeddings): Embedding(1, 768) (LayerNorm): LayerNorm((768,), eps=1e-05, elementwise_affine=True) (dropout): Dropout(p=0.1, inplace=False) ) (encoder): RobertaEncoder( (layer): ModuleList( (0): RobertaLayer( (attention): RobertaAttention( (self): RobertaSelfAttention( (query): Linear(in_features=768, out_features=768, bias=True) (key): Linear(in_features=768, out_features=768, bias=True) (value): Linear(in_features=768, out_features=768, bias=True) (dropout): Dropout(p=0.1, inplace=False) ) (output): RobertaSelfOutput( (dense): Linear(in_features=768, out_features=768, bias=True) (LayerNorm): LayerNorm((768,), eps=1e-05, elementwise_affine=True) (dropout): Dropout(p=0.1, inplace=False) ) ) (intermediate): RobertaIntermediate( (dense): Linear(in_features=768, out_features=3072, bias=True) ) (output): RobertaOutput( (dense): Linear(in_features=3072, out_features=768, bias=True) (LayerNorm): LayerNorm((768,), eps=1e-05, elementwise_affine=True) (dropout): Dropout(p=0.1, inplace=False) ) ) (1): RobertaLayer( (attention): RobertaAttention( (self): RobertaSelfAttention( (query): Linear(in_features=768, out_features=768, bias=True) (key): Linear(in_features=768, out_features=768, bias=True) (value): Linear(in_features=768, out_features=768, bias=True) (dropout): Dropout(p=0.1, inplace=False) ) (output): RobertaSelfOutput( (dense): Linear(in_features=768, out_features=768, bias=True) (LayerNorm): LayerNorm((768,), eps=1e-05, elementwise_affine=True) (dropout): Dropout(p=0.1, inplace=False) ) ) (intermediate): RobertaIntermediate( (dense): Linear(in_features=768, out_features=3072, bias=True) ) (output): RobertaOutput( (dense): Linear(in_features=3072, out_features=768, bias=True) (LayerNorm): LayerNorm((768,), eps=1e-05, elementwise_affine=True) (dropout): Dropout(p=0.1, inplace=False) ) ) (2): RobertaLayer( (attention): RobertaAttention( (self): RobertaSelfAttention( (query): Linear(in_features=768, out_features=768, bias=True) (key): Linear(in_features=768, out_features=768, bias=True) (value): Linear(in_features=768, out_features=768, bias=True) (dropout): Dropout(p=0.1, inplace=False) ) (output): RobertaSelfOutput( (dense): Linear(in_features=768, out_features=768, bias=True) (LayerNorm): LayerNorm((768,), eps=1e-05, elementwise_affine=True) (dropout): Dropout(p=0.1, inplace=False) ) ) (intermediate): RobertaIntermediate( (dense): Linear(in_features=768, out_features=3072, bias=True) ) (output): RobertaOutput( (dense): Linear(in_features=3072, out_features=768, bias=True) (LayerNorm): LayerNorm((768,), eps=1e-05, elementwise_affine=True) (dropout): Dropout(p=0.1, inplace=False) ) ) (3): RobertaLayer( (attention): RobertaAttention( (self): RobertaSelfAttention( (query): Linear(in_features=768, out_features=768, bias=True) (key): Linear(in_features=768, out_features=768, bias=True) (value): Linear(in_features=768, out_features=768, bias=True) (dropout): Dropout(p=0.1, inplace=False) ) (output): RobertaSelfOutput( (dense): Linear(in_features=768, out_features=768, bias=True) (LayerNorm): LayerNorm((768,), eps=1e-05, elementwise_affine=True) (dropout): Dropout(p=0.1, inplace=False) ) ) (intermediate): RobertaIntermediate( (dense): Linear(in_features=768, out_features=3072, bias=True) ) (output): RobertaOutput( (dense): Linear(in_features=3072, out_features=768, bias=True) (LayerNorm): LayerNorm((768,), eps=1e-05, elementwise_affine=True) (dropout): Dropout(p=0.1, inplace=False) ) ) (4): RobertaLayer( (attention): RobertaAttention( (self): RobertaSelfAttention( (query): Linear(in_features=768, out_features=768, bias=True) (key): Linear(in_features=768, out_features=768, bias=True) (value): Linear(in_features=768, out_features=768, bias=True) (dropout): Dropout(p=0.1, inplace=False) ) (output): RobertaSelfOutput( (dense): Linear(in_features=768, out_features=768, bias=True) (LayerNorm): LayerNorm((768,), eps=1e-05, elementwise_affine=True) (dropout): Dropout(p=0.1, inplace=False) ) ) (intermediate): RobertaIntermediate( (dense): Linear(in_features=768, out_features=3072, bias=True) ) (output): RobertaOutput( (dense): Linear(in_features=3072, out_features=768, bias=True) (LayerNorm): LayerNorm((768,), eps=1e-05, elementwise_affine=True) (dropout): Dropout(p=0.1, inplace=False) ) ) (5): RobertaLayer( (attention): RobertaAttention( (self): RobertaSelfAttention( (query): Linear(in_features=768, out_features=768, bias=True) (key): Linear(in_features=768, out_features=768, bias=True) (value): Linear(in_features=768, out_features=768, bias=True) (dropout): Dropout(p=0.1, inplace=False) ) (output): RobertaSelfOutput( (dense): Linear(in_features=768, out_features=768, bias=True) (LayerNorm): LayerNorm((768,), eps=1e-05, elementwise_affine=True) (dropout): Dropout(p=0.1, inplace=False) ) ) (intermediate): RobertaIntermediate( (dense): Linear(in_features=768, out_features=3072, bias=True) ) (output): RobertaOutput( (dense): Linear(in_features=3072, out_features=768, bias=True) (LayerNorm): LayerNorm((768,), eps=1e-05, elementwise_affine=True) (dropout): Dropout(p=0.1, inplace=False) ) ) (6): RobertaLayer( (attention): RobertaAttention( (self): RobertaSelfAttention( (query): Linear(in_features=768, out_features=768, bias=True) (key): Linear(in_features=768, out_features=768, bias=True) (value): Linear(in_features=768, out_features=768, bias=True) (dropout): Dropout(p=0.1, inplace=False) ) (output): RobertaSelfOutput( (dense): Linear(in_features=768, out_features=768, bias=True) (LayerNorm): LayerNorm((768,), eps=1e-05, elementwise_affine=True) (dropout): Dropout(p=0.1, inplace=False) ) ) (intermediate): RobertaIntermediate( (dense): Linear(in_features=768, out_features=3072, bias=True) ) (output): RobertaOutput( (dense): Linear(in_features=3072, out_features=768, bias=True) (LayerNorm): LayerNorm((768,), eps=1e-05, elementwise_affine=True) (dropout): Dropout(p=0.1, inplace=False) ) ) (7): RobertaLayer( (attention): RobertaAttention( (self): RobertaSelfAttention( (query): Linear(in_features=768, out_features=768, bias=True) (key): Linear(in_features=768, out_features=768, bias=True) (value): Linear(in_features=768, out_features=768, bias=True) (dropout): Dropout(p=0.1, inplace=False) ) (output): RobertaSelfOutput( (dense): Linear(in_features=768, out_features=768, bias=True) (LayerNorm): LayerNorm((768,), eps=1e-05, elementwise_affine=True) (dropout): Dropout(p=0.1, inplace=False) ) ) (intermediate): RobertaIntermediate( (dense): Linear(in_features=768, out_features=3072, bias=True) ) (output): RobertaOutput( (dense): Linear(in_features=3072, out_features=768, bias=True) (LayerNorm): LayerNorm((768,), eps=1e-05, elementwise_affine=True) (dropout): Dropout(p=0.1, inplace=False) ) ) (8): RobertaLayer( (attention): RobertaAttention( (self): RobertaSelfAttention( (query): Linear(in_features=768, out_features=768, bias=True) (key): Linear(in_features=768, out_features=768, bias=True) (value): Linear(in_features=768, out_features=768, bias=True) (dropout): Dropout(p=0.1, inplace=False) ) (output): RobertaSelfOutput( (dense): Linear(in_features=768, out_features=768, bias=True) (LayerNorm): LayerNorm((768,), eps=1e-05, elementwise_affine=True) (dropout): Dropout(p=0.1, inplace=False) ) ) (intermediate): RobertaIntermediate( (dense): Linear(in_features=768, out_features=3072, bias=True) ) (output): RobertaOutput( (dense): Linear(in_features=3072, out_features=768, bias=True) (LayerNorm): LayerNorm((768,), eps=1e-05, elementwise_affine=True) (dropout): Dropout(p=0.1, inplace=False) ) ) (9): RobertaLayer( (attention): RobertaAttention( (self): RobertaSelfAttention( (query): Linear(in_features=768, out_features=768, bias=True) (key): Linear(in_features=768, out_features=768, bias=True) (value): Linear(in_features=768, out_features=768, bias=True) (dropout): Dropout(p=0.1, inplace=False) ) (output): RobertaSelfOutput( (dense): Linear(in_features=768, out_features=768, bias=True) (LayerNorm): LayerNorm((768,), eps=1e-05, elementwise_affine=True) (dropout): Dropout(p=0.1, inplace=False) ) ) (intermediate): RobertaIntermediate( (dense): Linear(in_features=768, out_features=3072, bias=True) ) (output): RobertaOutput( (dense): Linear(in_features=3072, out_features=768, bias=True) (LayerNorm): LayerNorm((768,), eps=1e-05, elementwise_affine=True) (dropout): Dropout(p=0.1, inplace=False) ) ) (10): RobertaLayer( (attention): RobertaAttention( (self): RobertaSelfAttention( (query): Linear(in_features=768, out_features=768, bias=True) (key): Linear(in_features=768, out_features=768, bias=True) (value): Linear(in_features=768, out_features=768, bias=True) (dropout): Dropout(p=0.1, inplace=False) ) (output): RobertaSelfOutput( (dense): Linear(in_features=768, out_features=768, bias=True) (LayerNorm): LayerNorm((768,), eps=1e-05, elementwise_affine=True) (dropout): Dropout(p=0.1, inplace=False) ) ) (intermediate): RobertaIntermediate( (dense): Linear(in_features=768, out_features=3072, bias=True) ) (output): RobertaOutput( (dense): Linear(in_features=3072, out_features=768, bias=True) (LayerNorm): LayerNorm((768,), eps=1e-05, elementwise_affine=True) (dropout): Dropout(p=0.1, inplace=False) ) ) (11): RobertaLayer( (attention): RobertaAttention( (self): RobertaSelfAttention( (query): Linear(in_features=768, out_features=768, bias=True) (key): Linear(in_features=768, out_features=768, bias=True) (value): Linear(in_features=768, out_features=768, bias=True) (dropout): Dropout(p=0.1, inplace=False) ) (output): RobertaSelfOutput( (dense): Linear(in_features=768, out_features=768, bias=True) (LayerNorm): LayerNorm((768,), eps=1e-05, elementwise_affine=True) (dropout): Dropout(p=0.1, inplace=False) ) ) (intermediate): RobertaIntermediate( (dense): Linear(in_features=768, out_features=3072, bias=True) ) (output): RobertaOutput( (dense): Linear(in_features=3072, out_features=768, bias=True) (LayerNorm): LayerNorm((768,), eps=1e-05, elementwise_affine=True) (dropout): Dropout(p=0.1, inplace=False) ) ) ) ) (pooler): RobertaPooler( (dense): Linear(in_features=768, out_features=768, bias=True) (activation): Tanh() ) ) (decoder): TransformerDecoder( (layers): ModuleList( (0): TransformerDecoderLayer( (self_attn): MultiheadAttention( (out_proj): Linear(in_features=768, out_features=768, bias=True) ) (multihead_attn): MultiheadAttention( (out_proj): Linear(in_features=768, out_features=768, bias=True) ) (linear1): Linear(in_features=768, out_features=2048, bias=True) (dropout): Dropout(p=0.1, inplace=False) (linear2): Linear(in_features=2048, out_features=768, bias=True) (norm1): LayerNorm((768,), eps=1e-05, elementwise_affine=True) (norm2): LayerNorm((768,), eps=1e-05, elementwise_affine=True) (norm3): LayerNorm((768,), eps=1e-05, elementwise_affine=True) (dropout1): Dropout(p=0.1, inplace=False) (dropout2): Dropout(p=0.1, inplace=False) (dropout3): Dropout(p=0.1, inplace=False) ) (1): TransformerDecoderLayer( (self_attn): MultiheadAttention( (out_proj): Linear(in_features=768, out_features=768, bias=True) ) (multihead_attn): MultiheadAttention( (out_proj): Linear(in_features=768, out_features=768, bias=True) ) (linear1): Linear(in_features=768, out_features=2048, bias=True) (dropout): Dropout(p=0.1, inplace=False) (linear2): Linear(in_features=2048, out_features=768, bias=True) (norm1): LayerNorm((768,), eps=1e-05, elementwise_affine=True) (norm2): LayerNorm((768,), eps=1e-05, elementwise_affine=True) (norm3): LayerNorm((768,), eps=1e-05, elementwise_affine=True) (dropout1): Dropout(p=0.1, inplace=False) (dropout2): Dropout(p=0.1, inplace=False) (dropout3): Dropout(p=0.1, inplace=False) ) (2): TransformerDecoderLayer( (self_attn): MultiheadAttention( (out_proj): Linear(in_features=768, out_features=768, bias=True) ) (multihead_attn): MultiheadAttention( (out_proj): Linear(in_features=768, out_features=768, bias=True) ) (linear1): Linear(in_features=768, out_features=2048, bias=True) (dropout): Dropout(p=0.1, inplace=False) (linear2): Linear(in_features=2048, out_features=768, bias=True) (norm1): LayerNorm((768,), eps=1e-05, elementwise_affine=True) (norm2): LayerNorm((768,), eps=1e-05, elementwise_affine=True) (norm3): LayerNorm((768,), eps=1e-05, elementwise_affine=True) (dropout1): Dropout(p=0.1, inplace=False) (dropout2): Dropout(p=0.1, inplace=False) (dropout3): Dropout(p=0.1, inplace=False) ) (3): TransformerDecoderLayer( (self_attn): MultiheadAttention( (out_proj): Linear(in_features=768, out_features=768, bias=True) ) (multihead_attn): MultiheadAttention( (out_proj): Linear(in_features=768, out_features=768, bias=True) ) (linear1): Linear(in_features=768, out_features=2048, bias=True) (dropout): Dropout(p=0.1, inplace=False) (linear2): Linear(in_features=2048, out_features=768, bias=True) (norm1): LayerNorm((768,), eps=1e-05, elementwise_affine=True) (norm2): LayerNorm((768,), eps=1e-05, elementwise_affine=True) (norm3): LayerNorm((768,), eps=1e-05, elementwise_affine=True) (dropout1): Dropout(p=0.1, inplace=False) (dropout2): Dropout(p=0.1, inplace=False) (dropout3): Dropout(p=0.1, inplace=False) ) (4): TransformerDecoderLayer( (self_attn): MultiheadAttention( (out_proj): Linear(in_features=768, out_features=768, bias=True) ) (multihead_attn): MultiheadAttention( (out_proj): Linear(in_features=768, out_features=768, bias=True) ) (linear1): Linear(in_features=768, out_features=2048, bias=True) (dropout): Dropout(p=0.1, inplace=False) (linear2): Linear(in_features=2048, out_features=768, bias=True) (norm1): LayerNorm((768,), eps=1e-05, elementwise_affine=True) (norm2): LayerNorm((768,), eps=1e-05, elementwise_affine=True) (norm3): LayerNorm((768,), eps=1e-05, elementwise_affine=True) (dropout1): Dropout(p=0.1, inplace=False) (dropout2): Dropout(p=0.1, inplace=False) (dropout3): Dropout(p=0.1, inplace=False) ) (5): TransformerDecoderLayer( (self_attn): MultiheadAttention( (out_proj): Linear(in_features=768, out_features=768, bias=True) ) (multihead_attn): MultiheadAttention( (out_proj): Linear(in_features=768, out_features=768, bias=True) ) (linear1): Linear(in_features=768, out_features=2048, bias=True) (dropout): Dropout(p=0.1, inplace=False) (linear2): Linear(in_features=2048, out_features=768, bias=True) (norm1): LayerNorm((768,), eps=1e-05, elementwise_affine=True) (norm2): LayerNorm((768,), eps=1e-05, elementwise_affine=True) (norm3): LayerNorm((768,), eps=1e-05, elementwise_affine=True) (dropout1): Dropout(p=0.1, inplace=False) (dropout2): Dropout(p=0.1, inplace=False) (dropout3): Dropout(p=0.1, inplace=False) ) ) ) (dense): Linear(in_features=768, out_features=768, bias=True) (lm_head): Linear(in_features=768, out_features=50265, bias=False) (lsm): LogSoftmax() ) . idx = 0 TEXT_TO_SUMMARIZE = df_val.mthd.values[idx] print(&#39;Code:&#39;, TEXT_TO_SUMMARIZE) print(&#39;Original Comment:&#39;, df_val.cmt.values[idx]) . Code: public static byte[] decode(final string s) { int delta = s.endswith(&#34;==&#34;) ? 2 : s.endswith(&#34;=&#34;) ? 1 : 0; byte[] buffer = new byte[s.length() * bytes_
…
